yolo3_smartcar/yolo3_iou_smartcar_final.tflite (tflite, 104064 bytes, 26 tensors)

model/conv2d_17/Conv2D i1 [18, 1, 1, 128]
000000 12 b1 f1 b6 3b 05 d9 d3 9c cd 08 e5 36 3e 39 87
       18 -79 -15 -74 59 5 -39 -45 -100 -51 8 -27 54 62 57 -121
000010 ff da c9 f3 fa 22 41 ea 03 db 09 23 f2 ff 32 10
       -1 -38 -55 -13 -6 34 65 -22 3 -37 9 35 -14 -1 50 16
000020 9d d9 ec 0a e2 24 e4 00 f3 bb d9 2f ed 39 29 dc
       -99 -39 -20 10 -30 36 -28 0 -13 -69 -39 47 -19 57 41 -36
000030 c3 0a 4d 2d 14 a7 48 37 35 bb d8 3d 18 1e 21 04
       -61 10 77 45 20 -89 72 55 53 -69 -40 61 24 30 33 4
000040 01 ab e3 a3 d4 ad 48 4d 60 8b c7 81 b2 aa fe 87
       1 -85 -29 -93 -44 -83 72 77 96 -117 -57 -127 -78 -86 -2 -121
000050 a4 1f 09 0c 05 ff 60 c0 41 d9 b9 15 e2 e0 e8 b9
       -92 31 9 12 5 -1 96 -64 65 -39 -71 21 -30 -32 -24 -71
000060 32 2c 47 62 e2 d2 7a c4 de 4c cd 45 ce f4 07 0b
       50 44 71 98 -30 -46 122 -60 -34 76 -51 69 -50 -12 7 11
000070 76 ee ab d7 6a 54 02 f3 ad 42 19 df b9 1c 43 55
       118 -18 -85 -41 106 84 2 -13 -83 66 25 -33 -71 28 67 85
000080 75 95 04 09 74 33 bd 62 f8 df 2f 89 2a 23 54 a4
       117 -107 4 9 116 51 -67 98 -8 -33 47 -119 42 35 84 -92
000090 d0 a0 3c 9e 33 7d 9b 4f 9b c4 4a 0c 3b ee 53 40
       -48 -96 60 -98 51 125 -101 79 -101 -60 74 12 59 -18 83 64
0000a0 11 0d bd 4c ff f9 6a 6a d1 86 36 f9 d6 6f 94 4d
       17 13 -67 76 -1 -7 106 106 -47 -122 54 -7 -42 111 -108 77
0000b0 e1 27 50 af 3a 2f 38 40 22 61 37 bc 70 86 fe a7
       -31 39 80 -81 58 47 56 64 34 97 55 -68 112 -122 -2 -89
0000c0 f8 4a 53 32 2d 2a a3 ee d5 6d 27 a7 05 e8 7c 16
       -8 74 83 50 45 42 -93 -18 -43 109 39 -89 5 -24 124 22
0000d0 0c a6 c2 02 ed b3 28 8e 24 75 7f e6 9c f6 b6 fd
       12 -90 -62 2 -19 -77 40 -114 36 117 127 -26 -100 -10 -74 -3
0000e0 a6 ff 3c ff 0c 6a 32 dc da c4 b2 ff f6 ee b6 dd
       -90 -1 60 -1 12 106 50 -36 -38 -60 -78 -1 -10 -18 -74 -35
0000f0 fd e0 de ef b3 6c 15 fe b5 2b 2d d4 3e b9 9e 25
       -3 -32 -34 -17 -77 108 21 -2 -75 43 45 -44 62 -71 -98 37

model/conv2d_16/Conv2D i1 [128, 1, 1, 64]
000000 25 ee 6c f5 cb 34 b8 16 a2 a8 db 01 bb 5e f1 91
       37 -18 108 -11 -53 52 -72 22 -94 -88 -37 1 -69 94 -15 -111
000010 c7 cf 24 b2 bc 20 58 d4 b8 38 2e 5b 81 69 42 36
       -57 -49 36 -78 -68 32 88 -44 -72 56 46 91 -127 105 66 54
000020 c7 8e b7 57 d0 08 fd 90 be 65 07 c5 9c ad 5d 03
       -57 -114 -73 87 -48 8 -3 -112 -66 101 7 -59 -100 -83 93 3
000030 4a cf 44 ad 65 67 4f 03 e7 e4 1e 05 25 d7 14 ca
       74 -49 68 -83 101 103 79 3 -25 -28 30 5 37 -41 20 -54
000040 ba 54 c1 dd 69 26 4b 29 9b b4 19 13 74 fe 9b 64
       -70 84 -63 -35 105 38 75 41 -101 -76 25 19 116 -2 -101 100
000050 7e 08 34 45 12 18 de 14 5f d4 d5 d0 a5 12 e4 e3
       126 8 52 69 18 24 -34 20 95 -44 -43 -48 -91 18 -28 -29
000060 29 98 a9 2d 66 01 c1 15 e3 60 a3 c7 fb 01 0c da
       41 -104 -87 45 102 1 -63 21 -29 96 -93 -57 -5 1 12 -38
000070 05 6c 90 00 64 32 48 e8 95 7f 0c b5 42 0c c9 b2
       5 108 -112 0 100 50 72 -24 -107 127 12 -75 66 12 -55 -78
000080 9f 87 91 40 7f f1 0f 0c 53 ad 5a bf f5 bc 1e c8
       -97 -121 -111 64 127 -15 15 12 83 -83 90 -65 -11 -68 30 -56
000090 bc e0 ad 4b 6a 08 e7 8f ff c2 c5 f2 bf 59 d8 78
       -68 -32 -83 75 106 8 -25 -113 -1 -62 -59 -14 -65 89 -40 120
0000a0 39 d6 d9 ed 30 11 d2 b3 dd ed 4e 50 59 07 8e 71
       57 -42 -39 -19 48 17 -46 -77 -35 -19 78 80 89 7 -114 113
0000b0 9d 0e 75 49 0a fc 27 5a 0d 58 5d c5 f8 4b 6b 58
       -99 14 117 73 10 -4 39 90 13 88 93 -59 -8 75 107 88
0000c0 b5 17 c6 99 ca 53 94 f4 cb b3 a3 a8 b4 ed 03 59
       -75 23 -58 -103 -54 83 -108 -12 -53 -77 -93 -88 -76 -19 3 89
0000d0 27 56 02 fc e7 b9 b8 b4 b9 0f 2a fb 48 05 d8 85
       39 86 2 -4 -25 -71 -72 -76 -71 15 42 -5 72 5 -40 -123
0000e0 b0 53 35 19 a3 81 3c 25 b2 83 61 29 4e b8 4a 7f
       -80 83 53 25 -93 -127 60 37 -78 -125 97 41 78 -72 74 127
0000f0 85 2b 37 1f 27 f4 8c ac a9 de 9b 2c d8 c0 58 4b
       -123 43 55 31 39 -12 -116 -84 -87 -34 -101 44 -40 -64 88 75

model/batch_normalization_23/FusedBatchNormV3;model/depthwise_conv2d_7/depthwise;model/depthwise_conv2d_7/BiasAdd/ReadVariableOp;model/depthwise_conv2d_7/BiasAdd i1 [1, 5, 5, 64]
000000 45 d8 01 c0 6d 36 ef 67 e7 ba 13 8f f3 0b 1f 81
       69 -40 1 -64 109 54 -17 103 -25 -70 19 -113 -13 11 31 -127
000010 f4 f9 1e 1d 1b 32 98 17 53 2f 19 0c 09 2b b7 e9
       -12 -7 30 29 27 50 -104 23 83 47 25 12 9 43 -73 -23
000020 37 71 30 50 3b b1 dd 15 0f 33 5b b5 aa ef a6 18
       55 113 48 80 59 -79 -35 21 15 51 91 -75 -86 -17 -90 24
000030 e0 51 4a 48 03 29 27 e3 3b 31 03 16 04 0f 38 58
       -32 81 74 72 3 41 39 -29 59 49 3 22 4 15 56 88
000040 7d 95 01 78 07 6d a4 c2 f7 e1 0a 3b fd f5 1c 0e
       125 -107 1 120 7 109 -92 -62 -9 -31 10 59 -3 -11 28 14
000050 6f d2 4f 2f fd fa 2c cd ec 7f c5 28 1a b1 1d 15
       111 -46 79 47 -3 -6 44 -51 -20 127 -59 40 26 -79 29 21
000060 02 7e 60 da 4c 6a 27 30 0c 24 78 81 83 f7 32 2e
       2 126 96 -38 76 106 39 48 12 36 120 -127 -125 -9 50 46
000070 27 ce aa b9 69 4e ff 2b 46 29 af c7 d9 bf 00 1a
       39 -50 -86 -71 105 78 -1 43 70 41 -81 -57 -39 -65 0 26
000080 ec 28 27 04 36 e3 3c fc d1 e1 16 e6 2b 15 0c 09
       -20 40 39 4 54 -29 60 -4 -47 -31 22 -26 43 21 12 9
000090 35 4f 30 bb 08 7a db e1 e6 60 b6 0a fc 93 d6 73
       53 79 48 -69 8 122 -37 -31 -26 96 -74 10 -4 -109 -42 115
0000a0 d5 23 6e c5 15 45 5a 4d f8 1b dc d3 a8 d4 08 44
       -43 35 110 -59 21 69 90 77 -8 27 -36 -45 -88 -44 8 68
0000b0 d7 ff 2a b5 03 d6 a6 d6 61 6e 19 ed ea 70 18 f5
       -41 -1 42 -75 3 -42 -90 -42 97 110 25 -19 -22 112 24 -11
0000c0 e3 d6 f3 e0 50 0f 23 1b f0 aa fb fe bf 3e 85 cc
       -29 -42 -13 -32 80 15 35 27 -16 -86 -5 -2 -65 62 -123 -52
0000d0 6f 4c 65 10 3d 64 49 a8 05 43 33 9a 68 e4 04 2e
       111 76 101 16 61 100 73 -88 5 67 51 -102 104 -28 4 46
0000e0 e2 77 46 f3 f5 66 63 bf 9c 20 2d 92 c4 d8 b8 f8
       -30 119 70 -13 -11 102 99 -65 -100 32 45 -110 -60 -40 -72 -8
0000f0 bd ea 0a 0f 23 f8 f0 da 6a 3e 08 37 34 f2 b9 22
       -67 -22 10 15 35 -8 -16 -38 106 62 8 55 52 -14 -71 34

model/conv2d_15/Conv2D i1 [64, 1, 1, 32]
000000 c0 37 8a da 71 82 81 2e b5 50 c8 59 47 89 f0 6e
       -64 55 -118 -38 113 -126 -127 46 -75 80 -56 89 71 -119 -16 110
000010 31 6e b7 c4 18 9a ca a4 e3 a2 9c 4e 9a 52 fa ed
       49 110 -73 -60 24 -102 -54 -92 -29 -94 -100 78 -102 82 -6 -19
000020 28 9b 6e af fb 09 04 73 32 62 87 32 b6 e6 c4 7f
       40 -101 110 -81 -5 9 4 115 50 98 -121 50 -74 -26 -60 127
000030 4a 1f f6 66 8c df 9a 60 cb ec e2 bf bc e5 0e ed
       74 31 -10 102 -116 -33 -102 96 -53 -20 -30 -65 -68 -27 14 -19
000040 8c 3f 7f 8b ce 54 dc 5a 67 f3 28 1c 20 4b 15 6c
       -116 63 127 -117 -50 84 -36 90 103 -13 40 28 32 75 21 108
000050 6b 84 ee ed ca 00 2a 74 7e bb 62 45 6f 8e e5 63
       107 -124 -18 -19 -54 0 42 116 126 -69 98 69 111 -114 -27 99
000060 d9 ce c2 9d 49 d7 7a 27 c0 b5 9b 5b d4 4a 88 24
       -39 -50 -62 -99 73 -41 122 39 -64 -75 -101 91 -44 74 -120 36
000070 83 b7 d1 a2 a7 b8 6c ca e0 7e 07 f0 59 87 81 31
       -125 -73 -47 -94 -89 -72 108 -54 -32 126 7 -16 89 -121 -127 49
000080 50 f6 b4 24 46 19 b1 18 55 60 a5 8a e5 7a 71 de
       80 -10 -76 36 70 25 -79 24 85 96 -91 -118 -27 122 113 -34
000090 58 21 8c 97 b4 0e a9 ec 64 a7 46 90 f6 81 c2 7e
       88 33 -116 -105 -76 14 -87 -20 100 -89 70 -112 -10 -127 -62 126
0000a0 f4 9c 34 19 6a 54 ff 7f 26 fc 4c b4 49 4f ca 30
       -12 -100 52 25 106 84 -1 127 38 -4 76 -76 73 79 -54 48
0000b0 31 0c 90 fc 63 36 01 d1 e5 70 59 8a 1a f8 92 d9
       49 12 -112 -4 99 54 1 -47 -27 112 89 -118 26 -8 -110 -39
0000c0 75 90 e3 c1 1b 6a 8e 8f fe 14 15 37 41 43 fa a4
       117 -112 -29 -63 27 106 -114 -113 -2 20 21 55 65 67 -6 -92
0000d0 7a eb 32 7f 9c 1d 42 26 09 62 d4 2c c3 ab 56 f9
       122 -21 50 127 -100 29 66 38 9 98 -44 44 -61 -85 86 -7
0000e0 a0 9d cf 15 3d 9a 93 21 87 56 c5 00 e3 c4 8a a5
       -96 -99 -49 21 61 -102 -109 33 -121 86 -59 0 -29 -60 -118 -91
0000f0 a3 c3 b5 ac bb 7f 38 de af 1e a5 9e 28 55 79 92
       -93 -61 -75 -84 -69 127 56 -34 -81 30 -91 -98 40 85 121 -110

model/conv2d_14/Conv2D i1 [32, 1, 1, 64]
000000 63 3a 8c ea a6 a9 b7 45 ad ab 4b 86 a3 c2 76 e8
       99 58 -116 -22 -90 -87 -73 69 -83 -85 75 -122 -93 -62 118 -24
000010 bb 9f 5d 0f 10 e7 bc a3 81 44 65 2b ae 14 38 be
       -69 -97 93 15 16 -25 -68 -93 -127 68 101 43 -82 20 56 -66
000020 6e e5 ab 56 74 d7 38 3f 6e f7 23 77 f1 d6 d6 51
       110 -27 -85 86 116 -41 56 63 110 -9 35 119 -15 -42 -42 81
000030 24 6b f3 48 3e fc 1a ee ec fe 67 de b4 77 e8 6a
       36 107 -13 72 62 -4 26 -18 -20 -2 103 -34 -76 119 -24 106
000040 53 da e1 d5 ef a1 0c cc eb 3c 05 5f 4f 62 01 67
       83 -38 -31 -43 -17 -95 12 -52 -21 60 5 95 79 98 1 103
000050 d0 6e e0 7f a3 32 fb e0 da 29 fd 27 fc 0a 8c c7
       -48 110 -32 127 -93 50 -5 -32 -38 41 -3 39 -4 10 -116 -57
000060 37 31 7f bf e9 22 9a bb ad e4 ed 7a 26 11 95 8a
       55 49 127 -65 -23 34 -102 -69 -83 -28 -19 122 38 17 -107 -118
000070 0b f8 ef 48 f3 a6 73 f7 a8 cf d2 ba 77 c5 a8 05
       11 -8 -17 72 -13 -90 115 -9 -88 -49 -46 -70 119 -59 -88 5
000080 89 5e 50 5f 13 64 dc 4a 40 af f0 7f 58 02 fe 2f
       -119 94 80 95 19 100 -36 74 64 -81 -16 127 88 2 -2 47
000090 f7 2d 02 b2 30 58 a3 00 ea 7e 1a b7 b4 e2 35 02
       -9 45 2 -78 48 88 -93 0 -22 126 26 -73 -76 -30 53 2
0000a0 25 67 97 c8 c4 70 37 38 08 6d f1 3e c0 5f 3e 25
       37 103 -105 -56 -60 112 55 56 8 109 -15 62 -64 95 62 37
0000b0 0f 30 0a 96 63 df 65 56 ed 9d 5b 61 83 48 5b d0
       15 48 10 -106 99 -33 101 86 -19 -99 91 97 -125 72 91 -48
0000c0 74 7d 9d 64 fe 0c ff f6 1d 4a ed 0a 27 9b e3 df
       116 125 -99 100 -2 12 -1 -10 29 74 -19 10 39 -101 -29 -33
0000d0 f3 25 8b 8b ab 53 e8 55 af ad 82 68 94 9a 88 33
       -13 37 -117 -117 -85 83 -24 85 -81 -83 -126 104 -108 -102 -120 51
0000e0 3b 10 c2 d2 08 5e 97 a3 f6 59 b8 28 9c 9d 7f 34
       59 16 -62 -46 8 94 -105 -93 -10 89 -72 40 -100 -99 127 52
0000f0 91 21 f7 d8 4e 24 02 7d eb 5e 8f ae 5f 94 d9 78
       -111 33 -9 -40 78 36 2 125 -21 94 -113 -82 95 -108 -39 120

model/batch_normalization_20/FusedBatchNormV3;model/depthwise_conv2d_6/depthwise;model/depthwise_conv2d_6/BiasAdd/ReadVariableOp;model/depthwise_conv2d_6/BiasAdd;model/depthwise_conv2d_7/depthwise i1 [1, 5, 5, 64]
000000 f5 1a 25 ca 8c f8 f4 51 e0 f5 18 7f 7c 30 fa 93
       -11 26 37 -54 -116 -8 -12 81 -32 -11 24 127 124 48 -6 -109
000010 ab de 0e 30 2a 9d 81 8d 03 b6 68 d4 c7 70 26 6e
       -85 -34 14 48 42 -99 -127 -115 3 -74 104 -44 -57 112 38 110
000020 12 7f 9f 9c 22 a0 c5 63 bd db 40 1e ef b3 53 8e
       18 127 -97 -100 34 -96 -59 99 -67 -37 64 30 -17 -77 83 -114
000030 71 1b a5 db 62 88 ee 81 34 48 a6 bf c5 5e 19 ca
       113 27 -91 -37 98 -120 -18 -127 52 72 -90 -65 -59 94 25 -54
000040 0e 44 9c f8 58 44 22 1a aa a1 32 5b b1 02 bd 40
       14 68 -100 -8 88 68 34 26 -86 -95 50 91 -79 2 -67 64
000050 33 ac 98 9c aa d1 63 f2 02 e1 0e 75 a6 15 08 c3
       51 -84 -104 -100 -86 -47 99 -14 2 -31 14 117 -90 21 8 -61
000060 65 2e fe 9c c2 6a c8 7f c2 5d d5 98 a9 ec 33 81
       101 46 -2 -100 -62 106 -56 127 -62 93 -43 -104 -87 -20 51 -127
000070 73 10 ee 67 ac 8a f1 b8 c3 9e 93 af f4 04 8a 7e
       115 16 -18 103 -84 -118 -15 -72 -61 -98 -109 -81 -12 4 -118 126
000080 54 e4 3b 19 b2 4e c7 42 16 67 2e fd 2e b1 f9 30
       84 -28 59 25 -78 78 -57 66 22 103 46 -3 46 -79 -7 48
000090 c1 81 e3 33 e2 fd 40 58 0e a0 17 b0 19 1c f2 2f
       -63 -127 -29 51 -30 -3 64 88 14 -96 23 -80 25 28 -14 47
0000a0 e4 3d d6 28 72 41 b5 ff 4c ae 28 67 ab c1 52 35
       -28 61 -42 40 114 65 -75 -1 76 -82 40 103 -85 -63 82 53
0000b0 f7 c3 05 25 be 47 3b 32 3b a2 b4 34 ef d3 2b 7d
       -9 -61 5 37 -66 71 59 50 59 -94 -76 52 -17 -45 43 125
0000c0 f4 f0 13 d7 88 22 e4 6b 16 55 3f 10 19 07 04 03
       -12 -16 19 -41 -120 34 -28 107 22 85 63 16 25 7 4 3
0000d0 bd ac 90 5b dd 7f 7c b6 c7 e2 93 e9 37 53 f7 52
       -67 -84 -112 91 -35 127 124 -74 -57 -30 -109 -23 55 83 -9 82
0000e0 f7 0a cb 34 15 77 2d 5a b0 66 a0 8f 01 70 b5 44
       -9 10 -53 52 21 119 45 90 -80 102 -96 -113 1 112 -75 68
0000f0 30 aa 04 db 7f 34 7d d4 15 ea 66 b8 7f 16 16 d2
       48 -86 4 -37 127 52 125 -44 21 -22 102 -72 127 22 22 -46

model/conv2d_13/Conv2D i1 [64, 1, 1, 32]
000000 29 ac 53 e2 00 36 f4 51 81 ab 1b 68 ed e6 51 01
       41 -84 83 -30 0 54 -12 81 -127 -85 27 104 -19 -26 81 1
000010 00 ef 60 56 02 85 4b 3d b4 44 e7 3a 76 76 c2 45
       0 -17 96 86 2 -123 75 61 -76 68 -25 58 118 118 -62 69
000020 0e 9c 7f 3a 8b 2e 3c ba 12 98 a2 e1 aa 67 b9 bf
       14 -100 127 58 -117 46 60 -70 18 -104 -94 -31 -86 103 -71 -65
000030 74 36 5c 29 eb 6f dd 4d 0a 22 7b e2 59 9c c5 ea
       116 54 92 41 -21 111 -35 77 10 34 123 -30 89 -100 -59 -22
000040 c1 ec a8 0b 7f 4a 12 70 4f 41 5b f9 42 f7 55 3a
       -63 -20 -88 11 127 74 18 112 79 65 91 -7 66 -9 85 58
000050 73 32 e4 7a 43 e5 ca 5d 95 06 70 4f 30 76 c9 22
       115 50 -28 122 67 -27 -54 93 -107 6 112 79 48 118 -55 34
000060 ac 63 78 2c 2f f3 ff 11 bc f4 bf d7 95 fc bb 18
       -84 99 120 44 47 -13 -1 17 -68 -12 -65 -41 -107 -4 -69 24
000070 c9 81 de 0b 36 cb 50 ae e6 e1 34 68 13 f1 63 92
       -55 -127 -34 11 54 -53 80 -82 -26 -31 52 104 19 -15 99 -110
000080 6b e1 22 4f 67 7c d1 8d ff f0 4a b6 65 f3 4f e6
       107 -31 34 79 103 124 -47 -115 -1 -16 74 -74 101 -13 79 -26
000090 12 c8 37 fd 91 cf 19 8e a0 8e af 11 58 76 7f bd
       18 -56 55 -3 -111 -49 25 -114 -96 -114 -81 17 88 118 127 -67
0000a0 6d 7f d5 70 1c 5d 41 ea db 40 70 4e 9a 78 7e 87
       109 127 -43 112 28 93 65 -22 -37 64 112 78 -102 120 126 -121
0000b0 e0 06 be 7a 38 74 dd 9d c5 f9 75 45 8f 6d d2 be
       -32 6 -66 122 56 116 -35 -99 -59 -7 117 69 -113 109 -46 -66
0000c0 27 f4 47 67 70 35 07 b0 31 e4 41 33 df 00 ff 7f
       39 -12 71 103 112 53 7 -80 49 -28 65 51 -33 0 -1 127
0000d0 c5 3a 8d b0 a4 a2 b6 8c 8b 70 30 31 4c b1 30 49
       -59 58 -115 -80 -92 -94 -74 -116 -117 112 48 49 76 -79 48 73
0000e0 36 0c da 04 21 2f 2e 52 20 31 b2 08 78 a9 bd 51
       54 12 -38 4 33 47 46 82 32 49 -78 8 120 -87 -67 81
0000f0 9b 99 3f ab d2 0a 81 6b d6 74 f5 1c d8 1c e4 78
       -101 -103 63 -85 -46 10 -127 107 -42 116 -11 28 -40 28 -28 120

model/conv2d_12/Conv2D i1 [32, 1, 1, 64]
000000 97 e2 a6 c1 d3 a5 b3 ef aa 07 6e f7 33 a6 e0 a0
       -105 -30 -90 -63 -45 -91 -77 -17 -86 7 110 -9 51 -90 -32 -96
000010 6e f2 32 8f c3 3b a5 02 eb 75 29 05 e3 40 8e ec
       110 -14 50 -113 -61 59 -91 2 -21 117 41 5 -29 64 -114 -20
000020 4e 04 5b 52 81 66 a0 03 91 89 d9 c8 22 63 09 4c
       78 4 91 82 -127 102 -96 3 -111 -119 -39 -56 34 99 9 76
000030 8b c6 d8 26 e7 d6 3a 67 49 d2 14 4b d2 50 a7 e4
       -117 -58 -40 38 -25 -42 58 103 73 -46 20 75 -46 80 -89 -28
000040 07 9c f9 98 a9 14 1c 10 c9 e8 c3 ce b9 a6 6e 98
       7 -100 -7 -104 -87 20 28 16 -55 -24 -61 -50 -71 -90 110 -104
000050 39 73 00 d8 d6 e2 58 81 9f 1b 27 94 cc bb 2a 9f
       57 115 0 -40 -42 -30 88 -127 -97 27 39 -108 -52 -69 42 -97
000060 c4 d7 b1 bc c1 00 94 97 b2 05 8c e8 40 52 f2 b2
       -60 -41 -79 -68 -63 0 -108 -105 -78 5 -116 -24 64 82 -14 -78
000070 b5 d5 e0 f3 9c 93 61 c5 1d e1 e0 08 dd e8 60 95
       -75 -43 -32 -13 -100 -109 97 -59 29 -31 -32 8 -35 -24 96 -107
000080 21 20 51 5d 6e 16 96 1a 4c a2 b1 f4 c0 64 1b 59
       33 32 81 93 110 22 -106 26 76 -94 -79 -12 -64 100 27 89
000090 04 ba 5d 6a b6 90 d7 6f a7 fe 7f 2a ef 0d 41 9d
       4 -70 93 106 -74 -112 -41 111 -89 -2 127 42 -17 13 65 -99
0000a0 0b b5 f3 1d 20 dc e9 22 ca ef 1a 4a 02 f8 c1 ea
       11 -75 -13 29 32 -36 -23 34 -54 -17 26 74 2 -8 -63 -22
0000b0 93 af 18 b7 f9 0f a3 a9 4d e6 ba 14 5d b6 cf 67
       -109 -81 24 -73 -7 15 -93 -87 77 -26 -70 20 93 -74 -49 103
0000c0 62 c1 62 ff d7 a4 57 9e 1f 01 dc 40 41 11 60 7f
       98 -63 98 -1 -41 -92 87 -98 31 1 -36 64 65 17 96 127
0000d0 51 0c 5a fb d8 a4 44 88 53 24 d7 8f 44 b9 1d e5
       81 12 90 -5 -40 -92 68 -120 83 36 -41 -113 68 -71 29 -27
0000e0 b7 90 05 b4 0f 93 d7 68 0a 20 1a e5 24 8a 20 cf
       -73 -112 5 -76 15 -109 -41 104 10 32 26 -27 36 -118 32 -49
0000f0 bf 3b 67 6c 09 af 0d f6 a6 ae 18 27 f9 fc 96 02
       -65 59 103 108 9 -81 13 -10 -90 -82 24 39 -7 -4 -106 2

model/batch_normalization_17/FusedBatchNormV3;model/depthwise_conv2d_5/depthwise;model/depthwise_conv2d_5/BiasAdd/ReadVariableOp;model/depthwise_conv2d_5/BiasAdd;model/depthwise_conv2d_7/depthwise i1 [1, 5, 5, 64]
000000 05 81 b0 7e eb 21 aa d3 47 88 fc 0c 62 07 32 06
       5 -127 -80 126 -21 33 -86 -45 71 -120 -4 12 98 7 50 6
000010 a9 1b 5e 50 29 c4 48 ad 4c f9 c6 e0 72 2e dc 2d
       -87 27 94 80 41 -60 72 -83 76 -7 -58 -32 114 46 -36 45
000020 33 5c 22 af bc 87 fb 96 ec 8d af ed 38 19 fc 0c
       51 92 34 -81 -68 -121 -5 -106 -20 -115 -81 -19 56 25 -4 12
000030 23 23 25 9f 3a cf fe e5 2d 21 cd dc c9 13 64 5f
       35 35 37 -97 58 -49 -2 -27 45 33 -51 -36 -55 19 100 95
000040 dc e5 79 6f 44 cb 81 fa 6a df 64 24 cf f9 d5 c7
       -36 -27 121 111 68 -53 -127 -6 106 -33 100 36 -49 -7 -43 -57
000050 bd c0 51 c5 ff 81 a1 f1 2e 08 7f e3 13 8a 1a 01
       -67 -64 81 -59 -1 -127 -95 -15 46 8 127 -29 19 -118 26 1
000060 a3 8d 34 4f b9 33 dd a4 63 81 ae 05 2b 11 f2 6e
       -93 -115 52 79 -71 51 -35 -92 99 -127 -82 5 43 17 -14 110
000070 0f 14 96 0e 28 e4 1d 02 d9 b2 b1 3d 74 06 ec 2f
       15 20 -106 14 40 -28 29 2 -39 -78 -79 61 116 6 -20 47
000080 ed b0 41 c5 ed 96 bb fc 7f 2a 62 91 9e c0 59 b8
       -19 -80 65 -59 -19 -106 -69 -4 127 42 98 -111 -98 -64 89 -72
000090 fa 2a 7f 54 bd ce 49 4c 1d 15 ed 00 e0 51 d5 4b
       -6 42 127 84 -67 -50 73 76 29 21 -19 0 -32 81 -43 75
0000a0 34 d1 e4 db 4e a8 25 53 b7 3e 12 26 df 52 30 27
       52 -47 -28 -37 78 -88 37 83 -73 62 18 38 -33 82 48 39
0000b0 ab aa 64 29 c5 a7 d2 f6 60 f1 1e 1a 19 a0 34 49
       -85 -86 100 41 -59 -89 -46 -10 96 -15 30 26 25 -96 52 73
0000c0 bf eb ae d3 9d ab 73 1b c5 06 42 9e 06 c1 d5 fa
       -65 -21 -82 -45 -99 -85 115 27 -59 6 66 -98 6 -63 -43 -6
0000d0 29 d1 4a cc 4f 93 11 27 96 e9 06 db f5 93 3f e1
       41 -47 74 -52 79 -109 17 39 -106 -23 6 -37 -11 -109 63 -31
0000e0 95 1e 91 3d d6 0d 64 d0 3a ad d2 de 5d 38 06 b0
       -107 30 -111 61 -42 13 100 -48 58 -83 -46 -34 93 56 6 -80
0000f0 9e 4d b8 98 b7 3e 40 44 45 2c b0 21 6d fb da 28
       -98 77 -72 -104 -73 62 64 68 69 44 -80 33 109 -5 -38 40

model/conv2d_11/Conv2D i1 [64, 1, 1, 32]
000000 88 33 6f 61 0a 67 2b b4 0a 86 d4 da d3 02 b1 07
       -120 51 111 97 10 103 43 -76 10 -122 -44 -38 -45 2 -79 7
000010 60 c6 4a 8a 73 81 e9 59 c0 2b 18 38 fc f9 49 37
       96 -58 74 -118 115 -127 -23 89 -64 43 24 56 -4 -7 73 55
000020 d5 f8 ff 18 ac 33 bd de b7 d8 7f e0 41 56 eb bf
       -43 -8 -1 24 -84 51 -67 -34 -73 -40 127 -32 65 86 -21 -65
000030 ba a6 9f c6 2e 4f 02 ed a0 bb 6e 2c 12 84 29 05
       -70 -90 -97 -58 46 79 2 -19 -96 -69 110 44 18 -124 41 5
000040 b3 41 49 f3 e8 61 9a 12 09 b1 b0 2e 76 68 9f 94
       -77 65 73 -13 -24 97 -102 18 9 -79 -80 46 118 104 -97 -108
000050 fa c2 e2 19 16 c1 98 46 7f 0a c4 16 28 25 19 67
       -6 -62 -30 25 22 -63 -104 70 127 10 -60 22 40 37 25 103
000060 bb ef a7 79 16 02 75 83 8f d6 e5 1b c2 08 6c 81
       -69 -17 -89 121 22 2 117 -125 -113 -42 -27 27 -62 8 108 -127
000070 f2 a0 4d 79 cf a0 fa 27 31 4d e5 11 f6 e5 26 fc
       -14 -96 77 121 -49 -96 -6 39 49 77 -27 17 -10 -27 38 -4
000080 a4 e2 93 af 53 99 92 a8 c4 7f aa 5d a1 c7 30 60
       -92 -30 -109 -81 83 -103 -110 -88 -60 127 -86 93 -95 -57 48 96
000090 ce 9f 3e 2c bb 4c a4 3e c5 3f 02 73 57 a8 68 91
       -50 -97 62 44 -69 76 -92 62 -59 63 2 115 87 -88 104 -111
0000a0 53 95 31 96 fe 67 2e 99 0f ab 32 64 c9 b5 3a ad
       83 -107 49 -106 -2 103 46 -103 15 -85 50 100 -55 -75 58 -83
0000b0 aa 13 c9 f2 4f 73 07 3a 7f 66 4b 9b d6 89 d0 b7
       -86 19 -55 -14 79 115 7 58 127 102 75 -101 -42 -119 -48 -73
0000c0 77 90 4f c3 45 00 0e ef 81 f7 2c 6f 67 9d 31 76
       119 -112 79 -61 69 0 14 -17 -127 -9 44 111 103 -99 49 118
0000d0 96 dc 12 62 f7 4c 22 50 cd 37 da bd 24 09 b2 a1
       -106 -36 18 98 -9 76 34 80 -51 55 -38 -67 36 9 -78 -95
0000e0 42 1c 4d 8d 27 14 1d 01 ba 43 c0 b7 7f 9d 66 c5
       66 28 77 -115 39 20 29 1 -70 67 -64 -73 127 -99 102 -59
0000f0 df c0 32 bf 52 92 cc 03 e5 61 5f 32 7a 95 c7 eb
       -33 -64 50 -65 82 -110 -52 3 -27 97 95 50 122 -107 -57 -21

model/conv2d_10/Conv2D i1 [32, 1, 1, 96]
000000 86 0f 5a 15 a6 e2 4f dc 7b a1 bf ac d2 60 8c d7
       -122 15 90 21 -90 -30 79 -36 123 -95 -65 -84 -46 96 -116 -41
000010 58 be 69 5e 4e cd 26 95 39 77 15 91 a1 f6 8e 68
       88 -66 105 94 78 -51 38 -107 57 119 21 -111 -95 -10 -114 104
000020 fe c2 5f d5 87 b3 45 7b 6b 08 1f f4 fe cb 47 2b
       -2 -62 95 -43 -121 -77 69 123 107 8 31 -12 -2 -53 71 43
000030 3f 25 a5 21 32 14 bc c5 81 21 12 5b ea d2 4f c3
       63 37 -91 33 50 20 -68 -59 -127 33 18 91 -22 -46 79 -61
000040 38 98 33 22 05 3c b3 3d 54 47 b1 46 38 63 e6 5f
       56 -104 51 34 5 60 -77 61 84 71 -79 70 56 99 -26 95
000050 38 f4 a2 32 dc 32 45 e2 bb c6 5f 41 a8 bc 31 b9
       56 -12 -94 50 -36 50 69 -30 -69 -58 95 65 -88 -68 49 -71
000060 ca ae 82 be 2e aa db 5d e9 36 12 a7 77 33 3a e3
       -54 -82 -126 -66 46 -86 -37 93 -23 54 18 -89 119 51 58 -29
000070 bf 7f c7 62 65 a5 9d 79 6b 4b 63 6d 51 6f e0 f9
       -65 127 -57 98 101 -91 -99 121 107 75 99 109 81 111 -32 -7
000080 4b 6f cf 12 a6 6c e6 a6 9d 88 dc e3 f5 8a 32 23
       75 111 -49 18 -90 108 -26 -90 -99 -120 -36 -29 -11 -118 50 35
000090 9c d6 42 dd 2d 20 a6 bd d0 1b 53 f3 e1 b2 5a 9c
       -100 -42 66 -35 45 32 -90 -67 -48 27 83 -13 -31 -78 90 -100
0000a0 b7 01 fa d7 6a 60 ac 57 43 1e c1 f6 8e 3d 71 86
       -73 1 -6 -41 106 96 -84 87 67 30 -63 -10 -114 61 113 -122
0000b0 f7 cc 99 fa 60 86 d0 d7 19 44 4d 72 24 a6 a5 88
       -9 -52 -103 -6 96 -122 -48 -41 25 68 77 114 36 -90 -91 -120
0000c0 29 43 6a c9 3e 1b 1c 8c 27 24 27 3c 62 af f6 e5
       41 67 106 -55 62 27 28 -116 39 36 39 60 98 -81 -10 -27
0000d0 8d 4d 97 40 15 ce 06 64 65 64 8b ff 1e 41 1d d3
       -115 77 -105 64 21 -50 6 100 101 100 -117 -1 30 65 29 -45
0000e0 b4 5b dd 09 93 09 9d 28 f5 ab 02 79 ad 3f c0 57
       -76 91 -35 9 -109 9 -99 40 -11 -85 2 121 -83 63 -64 87
0000f0 13 97 a8 d3 06 68 36 a3 7c df 3e 4b 66 94 45 ae
       19 -105 -88 -45 6 104 54 -93 124 -33 62 75 102 -108 69 -82

model/batch_normalization_14/FusedBatchNormV3;model/depthwise_conv2d_4/depthwise;model/depthwise_conv2d_4/BiasAdd/ReadVariableOp;model/depthwise_conv2d_4/BiasAdd i1 [1, 3, 3, 96]
000000 9a b5 48 7e 04 a6 cf 7f c2 6e 9e d5 10 66 50 cb
       -102 -75 72 126 4 -90 -49 127 -62 110 -98 -43 16 102 80 -53
000010 61 a2 c4 46 7f ea e6 f7 f4 6c d5 30 b9 f3 dc cb
       97 -94 -60 70 127 -22 -26 -9 -12 108 -43 48 -71 -13 -36 -53
000020 d6 1e b4 39 90 0c 7f ff 1c b3 55 94 66 c8 dc 4f
       -42 30 -76 57 -112 12 127 -1 28 -77 85 -108 102 -56 -36 79
000030 70 7f bd 75 2d ee 9a e4 23 0f 7f fc f1 7f 3d b2
       112 127 -67 117 45 -18 -102 -28 35 15 127 -4 -15 127 61 -78
000040 d5 d5 7f d7 d5 81 ea 81 79 fa 1f b6 75 24 1e af
       -43 -43 127 -41 -43 -127 -22 -127 121 -6 31 -74 117 36 30 -81
000050 0a 7f 81 07 e6 86 81 2d 7f 7f 25 9e a1 e2 c5 ba
       10 127 -127 7 -26 -122 -127 45 127 127 37 -98 -95 -30 -59 -70
000060 d6 34 f6 cd 7f 81 bd d9 81 7f b5 4d 7f d2 d7 a0
       -42 52 -10 -51 127 -127 -67 -39 -127 127 -75 77 127 -46 -41 -96
000070 7f db 7f b4 cf 4c 00 a9 f0 68 20 0a 7f 7f 1b cf
       127 -37 127 -76 -49 76 0 -87 -16 104 32 10 127 127 27 -49
000080 7f ca 28 df d9 f8 83 7f 02 17 19 09 81 c4 69 e7
       127 -54 40 -33 -39 -8 -125 127 2 23 25 9 -127 -60 105 -25
000090 37 10 81 d3 41 8d 2b a6 e6 4e ff 72 82 7b b6 f6
       55 16 -127 -45 65 -115 43 -90 -26 78 -1 114 -126 123 -74 -10
0000a0 6e 54 07 58 a9 31 f8 d2 15 63 11 24 40 c4 4b f2
       110 84 7 88 -87 49 -8 -46 21 99 17 36 64 -60 75 -14
0000b0 7f 75 5b ef c6 09 e6 ce 61 bb 56 81 30 39 1e 20
       127 117 91 -17 -58 9 -26 -50 97 -69 86 -127 48 57 30 32
0000c0 e2 f0 3d 77 65 c9 f2 b8 53 e7 81 53 22 4f 1a b8
       -30 -16 61 119 101 -55 -14 -72 83 -25 -127 83 34 79 26 -72
0000d0 1b 26 0c 3e 60 7f ee a0 56 60 73 49 1f 68 73 2c
       27 38 12 62 96 127 -18 -96 86 96 115 73 31 104 115 44
0000e0 37 91 ea 87 8c f0 aa 24 81 88 75 7f b9 bb 3f 3f
       55 -111 -22 -121 -116 -16 -86 36 -127 -120 117 127 -71 -69 63 63
0000f0 23 ad 9a f2 01 81 2c 5a 8e 68 43 7f 0b 2d 7f 35
       35 -83 -102 -14 1 -127 44 90 -114 104 67 127 11 45 127 53

model/conv2d_9/Conv2D i1 [96, 1, 1, 32]
000000 67 ac 8f 33 7b 7d 49 93 62 34 23 f7 22 68 a8 99
       103 -84 -113 51 123 125 73 -109 98 52 35 -9 34 104 -88 -103
000010 44 ef ac ed 6d ea 0b a5 df ae 29 7f 6a 42 73 38
       68 -17 -84 -19 109 -22 11 -91 -33 -82 41 127 106 66 115 56
000020 09 5a 62 6d 5e 64 6b 04 bd f3 e1 31 09 71 08 ee
       9 90 98 109 94 100 107 4 -67 -13 -31 49 9 113 8 -18
000030 0d 25 67 af d6 6a dc af 2e 31 a0 7f e0 2c 27 9b
       13 37 103 -81 -42 106 -36 -81 46 49 -96 127 -32 44 39 -101
000040 b2 1d 21 4f 25 60 07 a2 34 56 5c ab ce 81 52 c0
       -78 29 33 79 37 96 7 -94 52 86 92 -85 -50 -127 82 -64
000050 63 cf e0 3a 4d dd 2e 13 4a dd 61 5c 4a cd f9 99
       99 -49 -32 58 77 -35 46 19 74 -35 97 92 74 -51 -7 -103
000060 57 60 ff a6 ab 21 65 ac bd d3 56 09 0c 1d cd 01
       87 96 -1 -90 -85 33 101 -84 -67 -45 86 9 12 29 -51 1
000070 9c 7d 73 81 ea fd 0f ce 32 96 49 6c 0d d2 21 44
       -100 125 115 -127 -22 -3 15 -50 50 -106 73 108 13 -46 33 68
000080 bb 68 ca 21 55 f2 14 ba 47 e1 53 c6 d8 c6 ec d2
       -69 104 -54 33 85 -14 20 -70 71 -31 83 -58 -40 -58 -20 -46
000090 d6 1c 75 64 54 3b 63 fd fb f8 3a 8c b7 81 49 d2
       -42 28 117 100 84 59 99 -3 -5 -8 58 -116 -73 -127 73 -46
0000a0 22 46 ca 5d cc 97 89 2b 14 81 29 7c 59 f3 e3 f9
       34 70 -54 93 -52 -105 -119 43 20 -127 41 124 89 -13 -29 -7
0000b0 4c e4 c0 5a 18 8b 0b 6f 67 49 b3 17 3c d2 61 c9
       76 -28 -64 90 24 -117 11 111 103 73 -77 23 60 -46 97 -55
0000c0 5d 95 c9 d9 61 36 9e eb 7d 4b 81 5c d9 1e 27 4f
       93 -107 -55 -39 97 54 -98 -21 125 75 -127 92 -39 30 39 79
0000d0 24 05 1d 9d bf bd 85 23 3d 7a 77 c5 f6 2d df e5
       36 5 29 -99 -65 -67 -123 35 61 122 119 -59 -10 45 -33 -27
0000e0 23 4a 5d 13 9e d4 65 79 fe 06 ee d7 b7 7e 40 81
       35 74 93 19 -98 -44 101 121 -2 6 -18 -41 -73 126 64 -127
0000f0 fe 12 0e 88 ff c9 55 df 70 08 1e 39 05 69 fd a8
       -2 18 14 -120 -1 -55 85 -33 112 8 30 57 5 105 -3 -88

model/conv2d_8/Conv2D i1 [32, 1, 1, 72]
000000 fa 51 c5 ef 21 db 3c 13 b8 4e ed fc 47 4a 51 03
       -6 81 -59 -17 33 -37 60 19 -72 78 -19 -4 71 74 81 3
000010 68 ee 96 56 29 58 cf dd 05 13 42 ad 10 9b 93 1c
       104 -18 -106 86 41 88 -49 -35 5 19 66 -83 16 -101 -109 28
000020 42 0a 8e 46 24 e3 30 fd 71 f1 30 99 41 65 27 03
       66 10 -114 70 36 -29 48 -3 113 -15 48 -103 65 101 39 3
000030 02 93 87 aa 94 06 13 54 e5 7f 00 cf 4a dc 30 24
       2 -109 -121 -86 -108 6 19 84 -27 127 0 -49 74 -36 48 36
000040 aa cc 04 86 91 b8 6c 1a 2c 7f f7 49 22 49 68 84
       -86 -52 4 -122 -111 -72 108 26 44 127 -9 73 34 73 104 -124
000050 e9 24 67 cf 43 88 5d ee 93 9d fe e7 94 f9 9f 79
       -23 36 103 -49 67 -120 93 -18 -109 -99 -2 -25 -108 -7 -97 121
000060 1f 9c 39 ec 01 e1 5e 4a 61 ab 0f 96 b7 3b 5a 13
       31 -100 57 -20 1 -31 94 74 97 -85 15 -106 -73 59 90 19
000070 1b 73 f7 1d e7 27 fa 90 4f a7 d1 ab c9 f1 e5 e2
       27 115 -9 29 -25 39 -6 -112 79 -89 -47 -85 -55 -15 -27 -30
000080 b9 95 e8 d5 ed cf fa 21 f2 a6 9c 75 8b 94 d3 05
       -71 -107 -24 -43 -19 -49 -6 33 -14 -90 -100 117 -117 -108 -45 5
000090 11 10 0f 24 89 0a 2b 53 47 aa a0 2a 72 21 45 94
       17 16 15 36 -119 10 43 83 71 -86 -96 42 114 33 69 -108
0000a0 f6 eb 23 38 9b 78 db 2a cc 3a fe 38 8a bc 6c bf
       -10 -21 35 56 -101 120 -37 42 -52 58 -2 56 -118 -68 108 -65
0000b0 13 15 95 d2 d8 51 e5 f5 4d 29 6e cf 31 ca 5a 56
       19 21 -107 -46 -40 81 -27 -11 77 41 110 -49 49 -54 90 86
0000c0 7f 0c c2 a9 c1 3d d4 34 c1 11 ed a6 ae bb 4a d2
       127 12 -62 -87 -63 61 -44 52 -63 17 -19 -90 -82 -69 74 -46
0000d0 9f 93 02 5d 5b b3 a9 50 af d5 51 08 9e 8f 1f 7b
       -97 -109 2 93 91 -77 -87 80 -81 -43 81 8 -98 -113 31 123
0000e0 29 61 cd 52 76 42 c4 1f 39 d6 77 e0 04 08 81 14
       41 97 -51 82 118 66 -60 31 57 -42 119 -32 4 8 -127 20
0000f0 a7 33 74 bd 50 af e0 5b 75 23 cc d5 39 1d 3f 38
       -89 51 116 -67 80 -81 -32 91 117 35 -52 -43 57 29 63 56

model/batch_normalization_11/FusedBatchNormV3;model/depthwise_conv2d_3/depthwise;model/depthwise_conv2d_3/BiasAdd/ReadVariableOp;model/depthwise_conv2d_3/BiasAdd i1 [1, 3, 3, 72]
000000 34 a0 df c7 0b 28 d4 cc 3b 82 67 7f ac e4 88 56
       52 -96 -33 -57 11 40 -44 -52 59 -126 103 127 -84 -28 -120 86
000010 ac 41 54 ba f5 3c c9 e1 11 a5 f3 0b 99 ea 32 35
       -84 65 84 -70 -11 60 -55 -31 17 -91 -13 11 -103 -22 50 53
000020 e4 f7 09 81 2c 7f 86 1b cc d7 db 81 4b 88 06 30
       -28 -9 9 -127 44 127 -122 27 -52 -41 -37 -127 75 -120 6 48
000030 7f 0a e3 23 e5 98 31 56 78 8d 63 63 7f 20 62 bf
       127 10 -29 35 -27 -104 49 86 120 -115 99 99 127 32 98 -65
000040 f3 a9 30 7f 22 35 97 2c 81 7a b7 22 98 bc 04 e2
       -13 -87 48 127 34 53 -105 44 -127 122 -73 34 -104 -68 4 -30
000050 81 c8 87 6c 81 2c f0 9f fb 90 72 09 6c 27 1e a5
       -127 -56 -121 108 -127 44 -16 -97 -5 -112 114 9 108 39 30 -91
000060 74 0c d6 ff 19 c3 e6 03 4c e4 c2 00 21 74 82 82
       116 12 -42 -1 25 -61 -26 3 76 -28 -62 0 33 116 -126 -126
000070 a7 66 21 a9 e3 81 e1 0b ab 85 10 99 79 cd fd 7d
       -89 102 33 -87 -29 -127 -31 11 -85 -123 16 -103 121 -51 -3 125
000080 47 7f 2e 21 60 df 7f 28 7f 13 1f b1 81 1a a1 dc
       71 127 46 33 96 -33 127 40 127 19 31 -79 -127 26 -95 -36
000090 02 46 7f db 55 35 3b 9b 2d 45 95 3e e2 9c 64 81
       2 70 127 -37 85 53 59 -101 45 69 -107 62 -30 -100 100 -127
0000a0 2d 7f 16 11 da 81 db a8 7f 81 b0 1b ea fc 33 12
       45 127 22 17 -38 -127 -37 -88 127 -127 -80 27 -22 -4 51 18
0000b0 90 bb 04 b7 b1 52 db 81 90 65 7f ec b9 b6 37 79
       -112 -69 4 -73 -79 82 -37 -127 -112 101 127 -20 -71 -74 55 121
0000c0 71 ff 3a 8c 1d 34 7c c0 ef a3 32 00 0e f6 37 f7
       113 -1 58 -116 29 52 124 -64 -17 -93 50 0 14 -10 55 -9
0000d0 b7 85 93 e7 3f e3 06 aa 73 8a 7a 68 db c7 c8 12
       -73 -123 -109 -25 63 -29 6 -86 115 -118 122 104 -37 -57 -56 18
0000e0 33 89 a8 a9 8c 7f ee e8 60 c9 85 34 65 aa f4 81
       51 -119 -88 -87 -116 127 -18 -24 96 -55 -123 52 101 -86 -12 -127
0000f0 cb 60 1d c3 3d d0 81 a3 c7 7f 86 03 9c 0f 19 dc
       -53 96 29 -61 61 -48 -127 -93 -57 127 -122 3 -100 15 25 -36

model/conv2d_7/Conv2D i1 [72, 1, 1, 24]
000000 2c 33 fb 72 f5 34 48 3b 2d b9 20 74 d8 99 8f ec
       44 51 -5 114 -11 52 72 59 45 -71 32 116 -40 -103 -113 -20
000010 81 88 41 d9 7e 9b 84 26 4d df 62 59 e7 52 29 14
       -127 -120 65 -39 126 -101 -124 38 77 -33 98 89 -25 82 41 20
000020 4e a6 11 b2 8f 95 c0 d4 c7 76 fe 7f a1 a1 62 ab
       78 -90 17 -78 -113 -107 -64 -44 -57 118 -2 127 -95 -95 98 -85
000030 15 d2 81 76 7c 2f 35 ad 52 4e b1 d9 31 b1 7b 3e
       21 -46 -127 118 124 47 53 -83 82 78 -79 -39 49 -79 123 62
000040 3f e7 2a 5b 4d a4 2a c8 c3 97 e2 b1 da b2 85 24
       63 -25 42 91 77 -92 42 -56 -61 -105 -30 -79 -38 -78 -123 36
000050 60 e7 d5 79 ea bf c5 75 6e d3 70 56 79 0b 7f e4
       96 -25 -43 121 -22 -65 -59 117 110 -45 112 86 121 11 127 -28
000060 08 a5 58 46 50 eb 30 27 b0 08 f3 a3 da 6f c8 8a
       8 -91 88 70 80 -21 48 39 -80 8 -13 -93 -38 111 -56 -118
000070 fb 22 a9 81 bc e0 31 d8 0d 4f 60 e3 eb df 33 8f
       -5 34 -87 -127 -68 -32 49 -40 13 79 96 -29 -21 -33 51 -113
000080 75 d6 7f 42 1b 0c 2c c2 5c 14 87 5b ac fc eb d0
       117 -42 127 66 27 12 44 -62 92 20 -121 91 -84 -4 -21 -48
000090 26 e2 66 10 ee d6 13 d9 20 c0 8e 6b 22 67 11 22
       38 -30 102 16 -18 -42 19 -39 32 -64 -114 107 34 103 17 34
0000a0 84 7f 5e f0 f1 1f 3b 87 ac c8 39 71 d4 7e bc ab
       -124 127 94 -16 -15 31 59 -121 -84 -56 57 113 -44 126 -68 -85
0000b0 c7 09 7e 0d 81 ab 24 3d 36 3f 1a d9 cf 7e a8 b4
       -57 9 126 13 -127 -85 36 61 54 63 26 -39 -49 126 -88 -76
0000c0 c5 91 d2 dd 17 72 cc 02 20 e5 7f 54 6c 74 43 b3
       -59 -111 -46 -35 23 114 -52 2 32 -27 127 84 108 116 67 -77
0000d0 7b cf 35 33 1e 92 25 8e 3d 26 4d c8 33 3a 82 95
       123 -49 53 51 30 -110 37 -114 61 38 77 -56 51 58 -126 -107
0000e0 fa e1 49 b7 1e 74 4e 11 73 01 35 81 ec 03 fa 83
       -6 -31 73 -73 30 116 78 17 115 1 53 -127 -20 3 -6 -125
0000f0 03 24 f2 c3 81 72 bf 97 5c 9f df 6e 20 ce c6 86
       3 36 -14 -61 -127 114 -65 -105 92 -97 -33 110 32 -50 -58 -122

model/conv2d_6/Conv2D i1 [24, 1, 1, 48]
000000 9e 5d 23 47 4e 97 5f 08 7e 31 a4 f7 03 2d cf d6
       -98 93 35 71 78 -105 95 8 126 49 -92 -9 3 45 -49 -42
000010 36 30 af 73 2b db 59 e6 aa a8 3c 6a 3a 30 92 94
       54 48 -81 115 43 -37 89 -26 -86 -88 60 106 58 48 -110 -108
000020 b7 a3 e6 91 39 6d 79 7f 15 6b 9e 22 ab 90 e3 dd
       -73 -93 -26 -111 57 109 121 127 21 107 -98 34 -85 -112 -29 -35
000030 47 f5 0f 50 53 03 7b c4 7d bc 1a da f8 3e 7f b5
       71 -11 15 80 83 3 123 -60 125 -68 26 -38 -8 62 127 -75
000040 d7 f9 6e 19 5a ff b4 1f 2f 24 97 fb 8f 1c f9 0e
       -41 -7 110 25 90 -1 -76 31 47 36 -105 -5 -113 28 -7 14
000050 27 83 ff 8c 25 71 e3 ae 21 ed e2 60 bf f5 6b 8e
       39 -125 -1 -116 37 113 -29 -82 33 -19 -30 96 -65 -11 107 -114
000060 81 74 31 4c 7b 2b 96 dc 42 d0 4c 7a cb 46 d2 89
       -127 116 49 76 123 43 -106 -36 66 -48 76 122 -53 70 -46 -119
000070 db 34 ab dd e5 76 a0 de af 66 37 b2 03 7a 92 b9
       -37 52 -85 -35 -27 118 -96 -34 -81 102 55 -78 3 122 -110 -71
000080 a5 43 8b fa 77 88 0a ef 99 1f 01 b3 1d 21 fc e6
       -91 67 -117 -6 119 -120 10 -17 -103 31 1 -77 29 33 -4 -26
000090 47 87 9a 0a 5f b8 6e c3 35 40 a8 f6 1f 58 65 f9
       71 -121 -102 10 95 -72 110 -61 53 64 -88 -10 31 88 101 -7
0000a0 7c 72 5a 14 0c 66 91 8b 71 c4 94 df 37 34 64 aa
       124 114 90 20 12 102 -111 -117 113 -60 -108 -33 55 52 100 -86
0000b0 56 a1 96 16 7f 6b df 2c 2b f0 72 55 f8 14 1c 1a
       86 -95 -106 22 127 107 -33 44 43 -16 114 85 -8 20 28 26
0000c0 da b1 67 72 dc 88 7e e0 09 e8 d6 37 ad 78 5c 33
       -38 -79 103 114 -36 -120 126 -32 9 -24 -42 55 -83 120 92 51
0000d0 36 97 d0 84 67 76 7f 2e 56 59 d3 fc 02 45 31 9e
       54 -105 -48 -124 103 118 127 46 86 89 -45 -4 2 69 49 -98
0000e0 11 fe 8d 5a bb cb 17 1c a1 57 3a 56 f0 08 5e 67
       17 -2 -115 90 -69 -53 23 28 -95 87 58 86 -16 8 94 103
0000f0 44 64 be 6a 16 08 85 e9 8b 0a b6 e9 61 da 17 77
       68 100 -66 106 22 8 -123 -23 -117 10 -74 -23 97 -38 23 119

model/batch_normalization_8/FusedBatchNormV3;model/depthwise_conv2d_2/depthwise;model/depthwise_conv2d_2/BiasAdd/ReadVariableOp;model/depthwise_conv2d_2/BiasAdd i1 [1, 3, 3, 48]
000000 cb 8b 6a b1 19 cf 62 81 c2 f3 7f c7 95 10 4e fe
       -53 -117 106 -79 25 -49 98 -127 -62 -13 127 -57 -107 16 78 -2
000010 65 81 af 82 3f 66 42 1e 9b da 10 d7 67 79 7f 81
       101 -127 -81 -126 63 102 66 30 -101 -38 16 -41 103 121 127 -127
000020 81 81 89 56 55 a0 7f 0d ba 7f 1a 81 34 81 f3 b6
       -127 -127 -119 86 85 -96 127 13 -70 127 26 -127 52 -127 -13 -74
000030 39 cd 9f ec 20 9e aa 8c 5c 06 7b f0 cf fe 2a 81
       57 -51 -97 -20 32 -98 -86 -116 92 6 123 -16 -49 -2 42 -127
000040 37 d8 0b f8 7f 29 aa b8 e5 00 a8 bf 0f f6 ee a5
       55 -40 11 -8 127 41 -86 -72 -27 0 -88 -65 15 -10 -18 -91
000050 ea 62 2f 27 24 eb 76 81 84 36 1c 65 77 e2 bf 61
       -22 98 47 39 36 -21 118 -127 -124 54 28 101 119 -30 -65 97
000060 b4 7b e1 df 7f 81 28 e7 1e 78 09 18 7f dc f2 be
       -76 123 -31 -33 127 -127 40 -25 30 120 9 24 127 -36 -14 -66
000070 25 40 81 f6 c0 62 2a 7f dd dc 98 e2 7f fe 2a 8f
       37 64 -127 -10 -64 98 42 127 -35 -36 -104 -30 127 -2 42 -113
000080 12 fc 99 33 a7 3e 84 ea 81 b4 7f 07 1a 5a 3c d6
       18 -4 -103 51 -89 62 -124 -22 -127 -76 127 7 26 90 60 -42
000090 0c 7e 7f ab de fe 00 d4 82 cd e2 45 c4 5e cb 51
       12 126 127 -85 -34 -2 0 -44 -126 -51 -30 69 -60 94 -53 81
0000a0 b0 50 4b be 71 13 37 b3 5a 73 be 49 e1 7f 53 70
       -80 80 75 -66 113 19 55 -77 90 115 -66 73 -31 127 83 112
0000b0 6c a9 0a 10 81 e1 ab 5c 5b bc bf c6 f1 70 2f 88
       108 -87 10 16 -127 -31 -85 92 91 -68 -65 -58 -15 112 47 -120
0000c0 59 66 78 b5 46 47 7f a8 34 56 d0 81 4a e3 5e fe
       89 102 120 -75 70 71 127 -88 52 86 -48 -127 74 -29 94 -2
0000d0 e8 94 6a 10 73 d2 a5 6b 5e 0e b0 7c 58 6c 5f b2
       -24 -108 106 16 115 -46 -91 107 94 14 -80 124 88 108 95 -78
0000e0 1c ab 7f ac 0e 81 02 b2 ca ce b5 15 7f 45 18 84
       28 -85 127 -84 14 -127 2 -78 -54 -50 -75 21 127 69 24 -124
0000f0 81 50 ad 81 a3 5d be d3 cd a4 b5 dc 1e ec 47 a1
       -127 80 -83 -127 -93 93 -66 -45 -51 -92 -75 -36 30 -20 71 -95

model/conv2d_5/Conv2D i1 [48, 1, 1, 24]
000000 f7 a9 48 3f e3 58 81 fb 44 13 59 57 49 94 59 1e
       -9 -87 72 63 -29 88 -127 -5 68 19 89 87 73 -108 89 30
000010 00 b4 db 97 fb 62 0a f6 42 65 73 e0 57 03 65 66
       0 -76 -37 -105 -5 98 10 -10 66 101 115 -32 87 3 101 102
000020 5e 75 c5 60 0a 6d db 8b 75 34 73 7f 8f 76 ab 93
       94 117 -59 96 10 109 -37 -117 117 52 115 127 -113 118 -85 -109
000030 78 fb b1 36 11 21 3f f0 ba 1c 26 ac 7a 7b f1 08
       120 -5 -79 54 17 33 63 -16 -70 28 38 -84 122 123 -15 8
000040 f6 74 c1 73 81 04 87 44 66 8f c1 c4 f9 95 b2 f4
       -10 116 -63 115 -127 4 -121 68 102 -113 -63 -60 -7 -107 -78 -12
000050 1f 81 6b 3c 49 8b 73 69 ed 49 d4 1a cf cc 5c 55
       31 -127 107 60 73 -117 115 105 -19 73 -44 26 -49 -52 92 85
000060 e9 c3 8d de e6 e6 8c d6 5d 35 a3 35 e5 81 ac 98
       -23 -61 -115 -34 -26 -26 -116 -42 93 53 -93 53 -27 -127 -84 -104
000070 96 05 98 e9 37 10 2d 34 fe 35 2b 97 8c 51 75 b5
       -106 5 -104 -23 55 16 45 52 -2 53 43 -105 -116 81 117 -75
000080 8b 25 a7 a8 25 33 ca c7 7f 76 93 8f f9 99 c2 96
       -117 37 -89 -88 37 51 -54 -57 127 118 -109 -113 -7 -103 -62 -106
000090 54 2c 73 a7 a9 38 13 08 fa 37 9d eb dd dd 7f 8c
       84 44 115 -89 -87 56 19 8 -6 55 -99 -21 -35 -35 127 -116
0000a0 94 4f cd b5 de bf 7d a8 c5 f0 bc 92 af 9d 7f f6
       -108 79 -51 -75 -34 -65 125 -88 -59 -16 -68 -110 -81 -99 127 -10
0000b0 d9 de 20 f8 1a ca ae 6e 55 c5 21 02 e9 2e bc dd
       -39 -34 32 -8 26 -54 -82 110 85 -59 33 2 -23 46 -68 -35
0000c0 7f f4 fe 9d f4 67 95 50 7a ef c0 79 9a 7b c8 f1
       127 -12 -2 -99 -12 103 -107 80 122 -17 -64 121 -102 123 -56 -15
0000d0 0a 2a 74 66 d5 81 d9 81 c9 94 2b ac 3b 66 71 3b
       10 42 116 102 -43 -127 -39 -127 -55 -108 43 -84 59 102 113 59
0000e0 a2 f1 33 ef 53 e1 60 b6 e8 7f 83 13 05 40 0d 76
       -94 -15 51 -17 83 -31 96 -74 -24 127 -125 19 5 64 13 118
0000f0 9e 7f f8 c6 db 55 f1 48 1e 58 02 6b 7b 18 b3 6a
       -98 127 -8 -58 -37 85 -15 72 30 88 2 107 123 24 -77 106

model/conv2d_4/Conv2D i1 [24, 1, 1, 32]
000000 af 81 ac de f9 39 61 36 34 31 f1 d6 1b 77 a5 c3
       -81 -127 -84 -34 -7 57 97 54 52 49 -15 -42 27 119 -91 -61
000010 5e a8 69 86 44 62 31 44 92 17 be b0 98 f4 1f f1
       94 -88 105 -122 68 98 49 68 -110 23 -66 -80 -104 -12 31 -15
000020 a4 87 1e 18 d2 8b 00 f8 01 16 0f b4 ba 05 59 3c
       -92 -121 30 24 -46 -117 0 -8 1 22 15 -76 -70 5 89 60
000030 97 2a 62 df 81 c3 8b 1d bc 16 81 f5 f3 0a b0 98
       -105 42 98 -33 -127 -61 -117 29 -68 22 -127 -11 -13 10 -80 -104
000040 1f ed 04 49 d9 72 df 0c b5 ad 5c 05 bd 2f c8 66
       31 -19 4 73 -39 114 -33 12 -75 -83 92 5 -67 47 -56 102
000050 c4 57 06 30 cd 22 23 49 37 9f 81 2a e5 a3 e8 55
       -60 87 6 48 -51 34 35 73 55 -97 -127 42 -27 -93 -24 85
000060 7a 1e 6f 9a 7c e7 53 65 21 1a bb 93 2c da 00 04
       122 30 111 -102 124 -25 83 101 33 26 -69 -109 44 -38 0 4
000070 f9 f2 90 f9 c7 6f ce e3 49 65 21 58 d3 7f 19 a5
       -7 -14 -112 -7 -57 111 -50 -29 73 101 33 88 -45 127 25 -91
000080 3f 4e 1a ff 17 78 31 13 83 53 f4 76 cb 7f fa 2d
       63 78 26 -1 23 120 49 19 -125 83 -12 118 -53 127 -6 45
000090 d4 ad 35 48 41 02 6d 31 2a cd 33 54 91 ae 94 0c
       -44 -83 53 72 65 2 109 49 42 -51 51 84 -111 -82 -108 12
0000a0 76 2b 8a 99 d1 64 4e 56 01 81 a8 18 a9 ce d9 8d
       118 43 -118 -103 -47 100 78 86 1 -127 -88 24 -87 -50 -39 -115
0000b0 87 1e 37 69 85 b2 02 24 42 b3 81 5b 55 7d 7a 78
       -121 30 55 105 -123 -78 2 36 66 -77 -127 91 85 125 122 120
0000c0 ed 94 d7 01 32 57 13 da fd 85 a8 a9 70 bd 25 5a
       -19 -108 -41 1 50 87 19 -38 -3 -123 -88 -87 112 -67 37 90
0000d0 a6 71 3b 98 47 f0 d0 3c 58 24 d4 f4 57 85 81 33
       -90 113 59 -104 71 -16 -48 60 88 36 -44 -12 87 -123 -127 51
0000e0 2e 81 e1 12 65 f9 5e 90 2e 47 ea 89 03 22 0f c3
       46 -127 -31 18 101 -7 94 -112 46 71 -22 -119 3 34 15 -61
0000f0 bc 42 8e 48 6f 63 68 28 b1 7d 77 f3 21 b6 a2 2a
       -68 66 -114 72 111 99 104 40 -79 125 119 -13 33 -74 -94 42

model/batch_normalization_5/FusedBatchNormV3;model/depthwise_conv2d_1/depthwise;model/depthwise_conv2d_1/BiasAdd/ReadVariableOp;model/depthwise_conv2d_1/BiasAdd;model/conv2d_14/Conv2D i1 [1, 3, 3, 32]
000000 81 9d 4b 61 67 1c 18 44 8b 18 d0 05 2a ae 21 2e
       -127 -99 75 97 103 28 24 68 -117 24 -48 5 42 -82 33 46
000010 78 f5 1e b3 54 e5 25 bf 7b 1d 3f a7 d5 0d 05 e2
       120 -11 30 -77 84 -27 37 -65 123 29 63 -89 -43 13 5 -30
000020 af 3e 07 de 1a 05 5e 23 db 28 1a 4b 81 7f 18 5b
       -81 62 7 -34 26 5 94 35 -37 40 26 75 -127 127 24 91
000030 3d d1 7f 81 7d d0 29 1d 81 27 32 cf 16 73 c3 44
       61 -47 127 -127 125 -48 41 29 -127 39 50 -49 22 115 -61 68
000040 05 dd 81 83 9f 6c 3b bf 4e 8b ca 3b 0b 35 2a 21
       5 -35 -127 -125 -97 108 59 -65 78 -117 -54 59 11 53 42 33
000050 b8 3a 28 3a 31 d9 b7 28 08 fb 18 83 4b 7a e6 b5
       -72 58 40 58 49 -39 -73 40 8 -5 24 -125 75 122 -26 -75
000060 1a 7f 77 34 4d 8b bc 37 55 74 40 e0 d5 0f 81 e6
       26 127 119 52 77 -117 -68 55 85 116 64 -32 -43 15 -127 -26
000070 ee 3a ed 71 02 7f 67 c5 5a 81 b2 7f e2 01 dc a8
       -18 58 -19 113 2 127 103 -59 90 -127 -78 127 -30 1 -36 -88
000080 41 0f 3e ca 50 81 e5 5f f0 05 d7 71 17 fd 46 a9
       65 15 62 -54 80 -127 -27 95 -16 5 -41 113 23 -3 70 -87
000090 81 81 53 0e 7e 0e 81 3e c2 75 da ef 29 1a 10 dd
       -127 -127 83 14 126 14 -127 62 -62 117 -38 -17 41 26 16 -35
0000a0 a3 03 3a b4 7f 30 23 81 5d 5a 35 c4 cb 0e 10 e3
       -93 3 58 -76 127 48 35 -127 93 90 53 -60 -53 14 16 -29
0000b0 ad 99 e4 c6 6e 64 84 88 13 ca cb 9d 81 df 6a f3
       -83 -103 -28 -58 110 100 -124 -120 19 -54 -53 -99 -127 -33 106 -13
0000c0 93 39 3d b4 cf a2 b2 ae 81 11 55 49 0a 07 b1 1e
       -109 57 61 -76 -49 -94 -78 -82 -127 17 85 73 10 7 -79 30
0000d0 aa 66 bf fd 7f be 85 7f 0f 36 81 c9 e8 cc 67 7f
       -86 102 -65 -3 127 -66 -123 127 15 54 -127 -55 -24 -52 103 127
0000e0 28 a6 53 09 43 21 81 42 db 71 81 e7 6a a7 fd 81
       40 -90 83 9 67 33 -127 66 -37 113 -127 -25 106 -89 -3 -127
0000f0 77 89 72 b1 58 58 70 fc dc e5 d1 e4 07 76 e3 96
       119 -119 114 -79 88 88 112 -4 -36 -27 -47 -28 7 118 -29 -106

model/conv2d_3/Conv2D i1 [32, 1, 1, 16]
000000 cb 81 a3 27 29 8a 53 20 57 79 82 cf 6f 82 f6 13
       -53 -127 -93 39 41 -118 83 32 87 121 -126 -49 111 -126 -10 19
000010 d4 81 9f 0c 62 1b bb a3 29 f3 04 0e 95 50 db 5a
       -44 -127 -97 12 98 27 -69 -93 41 -13 4 14 -107 80 -37 90
000020 18 a7 81 04 6e 48 67 0b 8c 95 9f be c8 53 92 1b
       24 -89 -127 4 110 72 103 11 -116 -107 -97 -66 -56 83 -110 27
000030 bf 01 1a 6c 53 f1 b7 e9 24 9d 81 32 3b 35 7d 57
       -65 1 26 108 83 -15 -73 -23 36 -99 -127 50 59 53 125 87
000040 a4 88 e0 f8 81 d4 42 20 d9 16 46 ac 15 3a 4f cf
       -92 -120 -32 -8 -127 -44 66 32 -39 22 70 -84 21 58 79 -49
000050 9d ac 3c 2b 8d 40 85 6c 26 04 44 7f 0f c7 b6 25
       -99 -84 60 43 -115 64 -123 108 38 4 68 127 15 -57 -74 37
000060 b2 a3 11 41 66 b9 dd d3 b3 69 43 7f 0c 3d 1e 00
       -78 -93 17 65 102 -71 -35 -45 -77 105 67 127 12 61 30 0
000070 d6 19 1f 3a 9e 75 81 58 4f 5b 78 f3 02 05 75 de
       -42 25 31 58 -98 117 -127 88 79 91 120 -13 2 5 117 -34
000080 81 fc 0d da 49 90 a9 d3 25 68 1f 86 b4 0f 7c 9f
       -127 -4 13 -38 73 -112 -87 -45 37 104 31 -122 -76 15 124 -97
000090 48 34 2b 3b 57 af 5b 39 0e 81 c2 84 63 7d 9e 75
       72 52 43 59 87 -81 91 57 14 -127 -62 -124 99 125 -98 117
0000a0 dc 1e 5e f3 be 23 11 95 81 8c ce de 9d ff 93 da
       -36 30 94 -13 -66 35 17 -107 -127 -116 -50 -34 -99 -1 -109 -38
0000b0 6b 83 a3 84 e9 0c a9 32 28 98 c9 81 18 46 f6 b7
       107 -125 -93 -124 -23 12 -87 50 40 -104 -55 -127 24 70 -10 -73
0000c0 83 81 e4 43 1e ed 86 1f d3 1f a7 79 1a ae ad d2
       -125 -127 -28 67 30 -19 -122 31 -45 31 -89 121 26 -82 -83 -46
0000d0 cf 81 4c 14 5e 4a e4 28 86 be c4 4c d1 8f 18 c4
       -49 -127 76 20 94 74 -28 40 -122 -66 -60 76 -47 -113 24 -60
0000e0 d7 2f 7e 38 86 cc 7c a7 2f 22 78 35 2a 81 37 95
       -41 47 126 56 -122 -52 124 -89 47 34 120 53 42 -127 55 -107
0000f0 de 0a 05 0d 60 d8 fb f3 0a 73 d1 81 25 37 b6 b4
       -34 10 5 13 96 -40 -5 -13 10 115 -47 -127 37 55 -74 -76

model/conv2d_2/Conv2D i1 [16, 1, 1, 32]
000000 36 b6 23 7f 09 b3 b4 06 a5 2e c0 90 5d ca c8 ae
       54 -74 35 127 9 -77 -76 6 -91 46 -64 -112 93 -54 -56 -82
000010 92 e3 08 2f 52 27 af b9 07 9a e1 28 b1 bc 63 34
       -110 -29 8 47 82 39 -81 -71 7 -102 -31 40 -79 -68 99 52
000020 2c da 5f fb 27 ec ad 23 02 be 35 d6 7c b8 15 c0
       44 -38 95 -5 39 -20 -83 35 2 -66 53 -42 124 -72 21 -64
000030 47 3d 8f a0 89 da bd 4b 9c f5 09 7f a7 73 78 27
       71 61 -113 -96 -119 -38 -67 75 -100 -11 9 127 -89 115 120 39
000040 7d 32 03 5a be 1c ab ee f8 fc 36 7f a6 78 35 2c
       125 50 3 90 -66 28 -85 -18 -8 -4 54 127 -90 120 53 44
000050 67 a6 a8 17 98 9a 72 f6 d9 7b 4e 22 2b 3a 58 97
       103 -90 -88 23 -104 -102 114 -10 -39 123 78 34 43 58 88 -105
000060 b7 13 04 38 7c 08 93 8e 71 45 7f 2f 27 32 5a e1
       -73 19 4 56 124 8 -109 -114 113 69 127 47 39 50 90 -31
000070 e0 d7 90 6e 7b 0f e6 37 66 3b 95 ec f1 af 96 00
       -32 -41 -112 110 123 15 -26 55 102 59 -107 -20 -15 -81 -106 0
000080 af 6b 4f 79 ab e3 a6 41 69 29 9b 08 b2 44 0b 2c
       -81 107 79 121 -85 -29 -90 65 105 41 -101 8 -78 68 11 44
000090 22 50 f3 7f b8 93 e1 98 45 de e8 c3 c6 da 6b c4
       34 80 -13 127 -72 -109 -31 -104 69 -34 -24 -61 -58 -38 107 -60
0000a0 63 40 81 6d 2a e9 e4 39 9a 87 1e 23 3b 34 73 2e
       99 64 -127 109 42 -23 -28 57 -102 -121 30 35 59 52 115 46
0000b0 cc 67 8e 34 59 de 4e 9c 7b 47 a1 5b 48 39 23 c9
       -52 103 -114 52 89 -34 78 -100 123 71 -95 91 72 57 35 -55
0000c0 c0 ac a6 0c 79 54 6d ee 1c 26 81 51 3b d3 98 dd
       -64 -84 -90 12 121 84 109 -18 28 38 -127 81 59 -45 -104 -35
0000d0 40 b9 a6 66 de ac e6 6c aa e3 61 21 5d 78 3e ac
       64 -71 -90 102 -34 -84 -26 108 -86 -29 97 33 93 120 62 -84
0000e0 b6 48 b6 67 87 7d c2 ef 37 4f ff d7 bb 20 b1 81
       -74 72 -74 103 -121 125 -62 -17 55 79 -1 -41 -69 32 -79 -127
0000f0 32 a8 7f d7 c5 48 3a 7e c4 e9 f3 c9 4d 7a 74 d2
       50 -88 127 -41 -59 72 58 126 -60 -23 -13 -55 77 122 116 -46

model/batch_normalization_2/FusedBatchNormV3;model/depthwise_conv2d/depthwise;model/depthwise_conv2d/BiasAdd/ReadVariableOp;model/depthwise_conv2d/BiasAdd;model/conv2d_14/Conv2D i1 [1, 3, 3, 32]
000000 62 c0 9c 81 ab 32 b3 f4 26 0c d6 58 7f 22 98 e3
       98 -64 -100 -127 -85 50 -77 -12 38 12 -42 88 127 34 -104 -29
000010 d5 7f ea a4 81 5b c4 c4 83 57 5f ee f0 c9 15 58
       -43 127 -22 -92 -127 91 -60 -60 -125 87 95 -18 -16 -55 21 88
000020 2f ea 6e 7d 7a 6f 7f f0 39 ae 73 6b 28 31 10 af
       47 -22 110 125 122 111 127 -16 57 -82 115 107 40 49 16 -81
000030 46 26 a8 bf 3a d2 b7 81 06 2f 24 94 15 7f d1 72
       70 38 -88 -65 58 -46 -73 -127 6 47 36 -108 21 127 -47 114
000040 c6 4a bd f6 6f 67 a9 85 f9 34 da d0 13 24 eb 19
       -58 74 -67 -10 111 103 -87 -123 -7 52 -38 -48 19 36 -21 25
000050 2f 00 70 d4 f2 47 cf bc d7 7f c4 87 81 6e 87 2b
       47 0 112 -44 -14 71 -49 -68 -41 127 -60 -121 -127 110 -121 43
000060 42 22 b2 de 87 81 53 9d d0 e0 c5 85 a9 60 b1 aa
       66 34 -78 -34 -121 -127 83 -99 -48 -32 -59 -123 -87 96 -79 -86
000070 ca f6 a3 4d 21 32 47 0c 31 2f 1e 81 ce e4 1d 24
       -54 -10 -93 77 33 50 71 12 49 47 30 -127 -50 -28 29 36
000080 1d a7 07 3c ff 32 b2 85 11 5d 0d 30 58 6e 00 9b
       29 -89 7 60 -1 50 -78 -123 17 93 13 48 88 110 0 -101
000090 88 7b 32 25 b0 81 6b 61 81 ae 90 9b ad 3d 83 2f
       -120 123 50 37 -80 -127 107 97 -127 -82 -112 -101 -83 61 -125 47
0000a0 6d 86 81 fe 01 8f 42 68 7f 52 78 8a 26 81 af 9f
       109 -122 -127 -2 1 -113 66 104 127 82 120 -118 38 -127 -81 -97
0000b0 7f 83 f9 fd 9c 00 74 03 96 51 e6 34 d1 c4 8b 63
       127 -125 -7 -3 -100 0 116 3 -106 81 -26 52 -47 -60 -117 99
0000c0 6c 81 5a b7 c1 70 23 19 31 f9 ab 7f 62 ba ac 0c
       108 -127 90 -73 -63 112 35 25 49 -7 -85 127 98 -70 -84 12
0000d0 32 4f 7f 47 17 25 41 ae 9f 4f 6c a1 0f 55 4a 13
       50 79 127 71 23 37 65 -82 -97 79 108 -95 15 85 74 19
0000e0 7f 64 b4 e9 c1 8e e1 81 3d 2c 0e 75 2f 4c 18 81
       127 100 -76 -23 -63 -114 -31 -127 61 44 14 117 47 76 24 -127
0000f0 5c 23 f4 52 a6 e8 7f 2d 94 f4 7f bf 1d 0f 7f ef
       92 35 -12 82 -90 -24 127 45 -108 -12 127 -65 29 15 127 -17

model/conv2d_1/Conv2D i1 [32, 1, 1, 32]
000000 bb 8a e7 c3 7b 4f 58 cf df df 27 2a 90 ad f7 fb
       -69 -118 -25 -61 123 79 88 -49 -33 -33 39 42 -112 -83 -9 -5
000010 24 ee 4d 53 63 03 81 c6 db dc e1 2d be 01 5f 65
       36 -18 77 83 99 3 -127 -58 -37 -36 -31 45 -66 1 95 101
000020 27 60 2a f0 28 b4 9b 2b 54 eb b9 be a1 32 a9 fd
       39 96 42 -16 40 -76 -101 43 84 -21 -71 -66 -95 50 -87 -3
000030 ac 8e ca 42 54 c9 af a9 2c a0 f8 7f 95 fe 6e 18
       -84 -114 -54 66 84 -55 -81 -87 44 -96 -8 127 -107 -2 110 24
000040 2e c7 0b e2 1f d1 fa 5e c6 35 20 fe 56 55 83 a6
       46 -57 11 -30 31 -47 -6 94 -58 53 32 -2 86 85 -125 -90
000050 7f 30 7a bc 90 90 6f 38 43 2e 61 8a c8 d8 27 0c
       127 48 122 -68 -112 -112 111 56 67 46 97 -118 -56 -40 39 12
000060 48 3f 81 79 bc 0a 1c 65 e3 d7 4f de a8 32 f1 99
       72 63 -127 121 -68 10 28 101 -29 -41 79 -34 -88 50 -15 -103
000070 13 f5 b4 81 41 81 6f 7b 52 e8 2b 5e 81 ce a3 65
       19 -11 -76 -127 65 -127 111 123 82 -24 43 94 -127 -50 -93 101
000080 22 c7 52 94 c9 1c 98 43 c2 bc f4 94 4b 90 5c 16
       34 -57 82 -108 -55 28 -104 67 -62 -68 -12 -108 75 -112 92 22
000090 6c df 5d 22 08 42 7f 1f 0a db 06 64 f7 36 a8 7a
       108 -33 93 34 8 66 127 31 10 -37 6 100 -9 54 -88 122
0000a0 54 de ac 25 81 fb 1a 26 0b 5f 2f 2c 48 b0 b6 fa
       84 -34 -84 37 -127 -5 26 38 11 95 47 44 72 -80 -74 -6
0000b0 67 b3 27 0a 97 49 d6 f4 ee e8 dd f8 21 06 ff 3c
       103 -77 39 10 -105 73 -42 -12 -18 -24 -35 -8 33 6 -1 60
0000c0 83 d3 c3 8b 35 2c fd 42 0a 30 0d 20 60 af f9 04
       -125 -45 -61 -117 53 44 -3 66 10 48 13 32 96 -81 -7 4
0000d0 cd d8 25 81 92 56 dc 99 f0 25 34 25 2c 0b 33 ee
       -51 -40 37 -127 -110 86 -36 -103 -16 37 52 37 44 11 51 -18
0000e0 95 e9 a0 fe 5e 22 b6 81 a8 cb 70 88 91 9b e1 db
       -107 -23 -96 -2 94 34 -74 -127 -88 -53 112 -120 -111 -101 -31 -37
0000f0 1a 1c b7 30 52 c9 72 ef da ab fa 05 ef 8f 9e 86
       26 28 -73 48 82 -55 114 -17 -38 -85 -6 5 -17 -113 -98 -122

model/conv2d/Conv2D i1 [32, 5, 5, 3]
000000 5c 22 69 38 c8 31 2b 18 6a 81 b0 1c 0c d9 ec ff
       92 34 105 56 -56 49 43 24 106 -127 -80 28 12 -39 -20 -1
000010 66 18 81 5d 02 b6 c2 71 e7 06 ff fc 72 d5 c2 0e
       102 24 -127 93 2 -74 -62 113 -25 6 -1 -4 114 -43 -62 14
000020 0a 88 94 3b e4 9e 9d ed b4 51 6b 17 82 56 4b b7
       10 -120 -108 59 -28 -98 -99 -19 -76 81 107 23 -126 86 75 -73
000030 c5 a1 93 1c 91 d0 b0 5a 4e e8 9c bd c5 98 89 5b
       -59 -95 -109 28 -111 -48 -80 90 78 -24 -100 -67 -59 -104 -119 91
000040 0f 31 d3 ca 09 b2 0e 01 e7 51 84 66 78 81 b6 6e
       15 49 -45 -54 9 -78 14 1 -25 81 -124 102 120 -127 -74 110
000050 96 eb ab 9a 5e ac dd 6c 3e 29 1a c0 9d 5d 5c 48
       -106 -21 -85 -102 94 -84 -35 108 62 41 26 -64 -99 93 92 72
000060 56 16 a9 23 a7 48 96 08 fc f3 ed 84 09 f7 a8 31
       86 22 -87 35 -89 72 -106 8 -4 -13 -19 -124 9 -9 -88 49
000070 50 87 0a 90 6f c3 a4 92 d1 01 76 55 d1 bc 53 fb
       80 -121 10 -112 111 -61 -92 -110 -47 1 118 85 -47 -68 83 -5
000080 d7 ed 29 62 07 8d 5c a4 39 b9 22 5b 3e 4f a0 19
       -41 -19 41 98 7 -115 92 -92 57 -71 34 91 62 79 -96 25
000090 f0 d6 4b 3b 6c 90 f6 fd 73 04 7f 22 91 db e8 9f
       -16 -42 75 59 108 -112 -10 -3 115 4 127 34 -111 -37 -24 -97
0000a0 a7 46 14 9d 2d 5c e4 fd 9e e4 93 c7 b0 1e 57 82
       -89 70 20 -99 45 92 -28 -3 -98 -28 -109 -57 -80 30 87 -126
0000b0 66 8a 05 26 3c 26 6a 10 e1 d0 00 28 91 8f 79 9e
       102 -118 5 38 60 38 106 16 -31 -48 0 40 -111 -113 121 -98
0000c0 24 fb fd 8d 18 ed ca 4d c9 82 eb 29 c6 8f 3b 1d
       36 -5 -3 -115 24 -19 -54 77 -55 -126 -21 41 -58 -113 59 29
0000d0 a4 eb 85 53 bc 34 df 2e db 3a ba db 28 9f 36 9e
       -92 -21 -123 83 -68 52 -33 46 -37 58 -70 -37 40 -97 54 -98
0000e0 4a 33 b6 f1 e6 e3 27 0c 07 7e df c9 35 37 51 4a
       74 51 -74 -15 -26 -29 39 12 7 126 -33 -55 53 55 81 74
0000f0 04 fe 2d 95 0d 57 ab 15 6b f1 f9 99 6f 68 7f 1c
       4 -2 45 -107 13 87 -85 21 107 -15 -7 -103 111 104 127 28
